last_brain.pth (torch, 7787 bytes, 12 tensors)

fc1.weight f4 [30, 5]
0.3293271 0.51524097 0.6915057 -0.16397908 0.21653344 0.16015428 -0.15648538 -0.16903591
0.21022779 -0.012373358 -0.21029216 0.4957678 -0.6123705 0.10262907 0.5204784 -0.3091996
0.059230506 -0.23181012 0.30875945 0.33271897 0.030166134 0.72137785 0.3528575 -0.48467097
0.47103646 0.7646293 0.38279182 0.81924117 -0.15021157 -0.010308956 0.6893722 0.6267138
0.1716922 -0.15286736 0.5690508 0.5670439 0.096126795 0.3860094 0.5809796 -0.43649626
-0.21195786 -0.3387549 -0.08977598 -0.391892 -0.36846808 0.21069808 -0.031051388 0.8711608
-0.45465326 0.43244117 1.2226893 -1.7521529 0.73907936 0.15940961 0.15087488 0.6833783
-0.10839969 0.44325316 0.5061795 -0.6413195 0.40956965 0.6379748 0.70776385 0.2842452
0.11993159 -0.34162378 0.050239924 0.02696382 -0.50008994 -0.006139632 0.018739432 -0.31222165
-0.15139616 -0.029550731 -0.026204973 -0.36663657 0.26653922 -0.17290056 -0.09069803 0.28549927
-0.5876976 -0.59456986 0.4332414 -0.10339259 -0.09510463 0.4669166 0.53025544 0.09441331
-0.32833272 0.5639288 0.4868973 0.3605396 -0.6563505 -0.3793458 0.31057784 0.5850446
0.6930635 0.3789992 0.6408536 -0.871133 0.14762151 0.08237231 -0.17111215 -0.2221485
-0.098217785 -0.16142255 -0.4078551 -0.011374951 -0.18726848 0.21934824 -0.37971818 -0.51989114
0.18582608 -0.84568465 0.691079 0.52055305 0.7726062 0.3500585 -0.2826526 0.41846633
-0.40703964 0.1541745 0.028978378 -0.34963453 -0.20219114 0.70425814 0.41764802 0.21109492
0.04822714 0.05482857 -0.2255859 -0.3827743 -0.3399642 0.24919409 0.007019371 0.115322426
-1.177117 0.7302724 -0.3446785 -0.028044024 -0.1635652 0.8147901 -1.8725846 0.3008718
-0.23023696 -0.16401371 -0.97690207 0.16675065 -0.5156554 0.2867969
00000000: 909d a83e d5e6 033f 8406 313f 22ea 27be
00000010: f1ba 5d3e 7cff 233e b43d 20be c017 2dbe
00000020: f445 573e a0b9 4abc d456 57be 47d5 fd3e
00000030: 50c4 1cbf 312f d23d 133e 053f 694f 9ebe
00000040: b09b 723d a25f 6dbe b815 9e3e 245a aa3e
00000050: f81e f73c 38ac 383f bda9 b43e cb26 f8be
00000060: b12b f13e bfbe 433f 4afd c33e cab9 513f
00000070: 10d1 19be e5e6 28bc b27a 303f 5170 203f
00000080: 14d0 2f3e 4389 1cbe 50ad 113f ca29 113f
00000090: 20de c43d 06a3 c53e 14bb 143f 707c dfbe
000000a0: 7b0b 59be 4871 adbe 78dc b7bd 11a6 c8be
000000b0: d9a7 bcbe 3dc1 573e 7b5f febc 6504 5f3f
000000c0: 50c8 e8be ee68 dd3e 1581 9c3f 8c46 e0bf
000000d0: 4e34 3d3f 463c 233e f27e 1a3e e1f1 2e3f
000000e0: a800 debd 14f2 e23e fb94 013f 842d 24bf
000000f0: 1db3 d13e 5152 233f 0330 353f 9688 913e
00000100: b29e f53d 50e9 aebe 61c8 4d3d 3be3 dc3c
00000110: e505 00bf f72e c9bb 7083 993c 84db 9fbe
00000120: 9807 1bbe 6014 f2bc d0ab d6bc cab7 bbbe
00000130: d477 883e d80c 31be e4bf b9bd f62c 923e
00000140: 5a73 16bf bb35 18bf d1d1 dd3e 7fbf d3bd
00000150: 37c6 c2bd b10f ef3e d2be 073f c45b c13d
00000160: 3a1b a8be a35d 103f 9a4a f93e a598 b83e
00000170: 9606 28bf 9d39 c2be 0f04 9f3e 7cc5 153f
00000180: 9c6c 313f 2f0c c23e fb0e 243f 9302 5fbf
00000190: 182a 173e d0b2 a83d 0638 2fbe e57a 63be
000001a0: 6826 c9bd f44b 25be 62d2 d0be 015e 3abc
000001b0: 4fc3 3fbe d39c 603e 6c6a c2be 9617 05bf
000001c0: 3149 3e3e ca7e 58bf 8eea 303f f742 053f
000001d0: 85c9 453f de3a b33e d7b7 90be 3841 d63e
000001e0: 8067 d0be ecdf 1d3e 1064 ed3c 4c03 b3be
000001f0: 320b 4fbe 434a 343f f6d5 d53e 4429 583e
00000200: d289 453d ec93 603d fdff 66be fefa c3be
00000210: ca0f aebe bc2c 7f3e c002 e63b 2a2e ec3d
00000220: c5ab 96bf 22f3 3a3f b379 b0be 95bc e5bc
00000230: a37d 27be 1696 503f dab0 efbf de0b 9a3e
00000240: 3dc3 6bbe 36f3 27be 4116 7abf afc0 2a3e
00000250: fe01 04bf 0bd7 923e

fc1.bias f4 [30]
0.19144015 -0.2995126 0.6078505 -0.30599016 0.30004257 -0.5137021 -0.34559923 0.29662535
-0.1997229 0.35147652 -0.21623111 0.20297645 0.14714122 0.56332713 -0.2172455 -0.38620716
0.76960087 0.26626745 -0.34254944 -0.5483977 -0.3930513 -0.3837157 -0.52227545 -0.42981938
-0.44500217 0.32577252 -0.3448501 0.49093992 0.57632273 0.51664346
00000000: e308 443e b759 99be 179c 1b3f beaa 9cbe
00000010: 2e9f 993e fb81 03bf 62f2 b0be 47df 973e
00000020: 2984 4cbe bbf4 b33e b06b 5dbe 0fd9 4f3e
00000030: 30ac 163e 3536 103f 9b75 5ebe f2bc c5be
00000040: 9004 453f 3554 883e a462 afbe cb63 0cbf
00000050: 053e c9be 6276 c4be d8b3 05bf 4911 dcbe
00000060: 53d7 e3be a8cb a63e 3190 b0be 7a5c fb3e
00000070: e389 133f bf42 043f

fc2.weight f4 [3, 30]
-0.43092772 0.16035107 0.3628278 0.15015748 -0.4097941 -0.4755193 -0.32300973 -0.5992053
-0.034731835 -0.16077645 1.2591641 -0.4403358 -0.34435368 0.3166924 -0.08585251 0.119903326
0.7746065 -0.5896155 -0.0038484652 -0.75310147 -0.057552665 -0.07162227 -1.022155 -0.5107158
0.06779653 -0.48526472 0.08536741 0.8840178 0.59301883 0.4948573 -0.5153205 0.028525755
0.39062038 0.124221236 -0.37213567 -0.28184205 -0.5950191 -0.47274348 -0.119795114 -0.18869227
1.3891867 -0.37235358 -0.48176715 0.47352016 0.11739427 -0.10545461 0.6784431 -0.470256
-1.1337826 -0.8848141 0.0100655705 0.059508067 -0.477752 -0.46155268 -0.024306893 -0.51226944
-0.040836632 1.0385032 0.23005708 0.3518972 -0.2565995 -0.022856742 0.81594247 -0.110912874
-0.24414858 -0.46200705 -0.49460843 -0.5328545 -0.058436804 -0.5545827 -0.6911995 -0.83639747
-0.42152888 0.43262887 -0.14589909 0.017685205 0.42144272 -0.40418884 0.26734805 -0.5863479
0.17096505 -0.01934972 -1.0997003 -0.5502732 0.16687304 -0.34773856 0.019748092 0.010684768
1.2512045 0.37789124
00000000: 8fa2 dcbe 1233 243e 91c4 b93e e2c2 193e
00000010: 88d0 d1be 4477 f3be 8861 a5be 8565 19bf
00000020: f842 0ebd 95a2 24be 4a2c a13f b273 e1be
00000030: 204f b0be 8225 a23e 71d3 afbd e08f f53d
00000040: 9d4c 463f 0bf1 16bf 8836 7cbb 42cb 40bf
00000050: 58bc 6bbd b2ae 92bd fad5 82bf 45be 02bf
00000060: e8d8 8a3d 9e74 f8be 1cd5 ae3d fe4e 623f
00000070: 15d0 173f f05d fd3e 0bec 03bf d8ae e93c
00000080: 65ff c73e b467 fe3d 9188 bebe 9a4d 90be
00000090: 2c53 18bf 6f0b f2be 2457 f5bd 8c38 41be
000000a0: dfd0 b13f 21a5 bebe 2faa f6be 3c71 f23e
000000b0: 686c f03d 96f8 d7bd 72ae 2d3f 65c5 f0be
000000c0: ca1f 91bf 2d83 62bf 10ea 243c bbbe 733d
000000d0: e99b f4be a250 ecbe 401f c7bc 1724 03bf
000000e0: 5044 27bd aced 843f 1594 6b3e df2b b43e
000000f0: 0261 83be 103e bbbc 9be1 503f 4a26 e3bd
00000100: 1602 7abe 308c ecbe 513d fdbe 2769 08bf
00000110: 6e5b 6fbd 22f9 0dbf 73f2 30bf 251e 56bf
00000120: a2d2 d7be 8881 dd3e 9266 15be 90e0 903c
00000130: 57c7 d73e d7f1 cebe d8e1 883e e51a 16bf
00000140: 7611 2f3e 4e83 9ebc fbc2 8cbf b4de 0cbf
00000150: c4e0 2a3e ca0a b2be c0c6 a13c 2a0f 2f3c
00000160: 7827 a03f f67a c13e

fc2.bias f4 [3]
-0.22979194 -0.12806779 -0.13914244
00000000: 944e 6bbe 3424 03be 5b7b 0ebe

exp_avg f4 [30, 5]
-0.00093053805 -0.0005404302 -0.00087463274 -0.0013639207 0.0013639207 0.0 0.0 0.0
0.0 0.0 0.0005843764 0.00061979436 0.0004521066 0.002433849 -0.002433849 0.0
0.0 0.0 0.0 0.0 -0.00082679535 -0.0003973268 -0.000683291 -0.0010552312
0.0010552312 -0.0011281909 -0.0006549967 -0.00046448718 -0.0005609196 0.0005609196 -0.001556475 -0.000757297
-0.00088318886 -0.00100562 0.00100562 -0.001378855 -0.00059101306 -0.0013165872 -0.001786214 0.001786214
0.0 0.0 0.0 0.0 0.0 -0.0011669486 -0.00047913956 -0.0009774998
-0.0008784103 0.0008784103 -0.0010263079 0.0015353832 0.0007452641 0.0017835364 -0.0017835364 -0.001994841
-0.0011050116 -0.0016215176 -0.0020464917 0.0020464917 -0.0011987598 -0.0006141126 -0.0010639209 -0.0017664402
0.0017664402 0.0009357661 0.00026699045 0.0008369094 0.0016326823 -0.0016326823 0.0 0.0
0.0 0.0 0.0 0.0 0.0 0.0 0.0 0.0
0.0014397191 0.00071543665 0.0013628704 0.0023161871 -0.0023161871 -0.0012063256 -0.00056879624 -0.000821804
-0.0013938295 0.0013938295 -0.0012827609 -0.00126946 -0.0012516052 0.00040836353 -0.00040836353 -0.0027817334
-0.0020570806 -0.0022815918 -0.0014381775 0.0014381775 0.0 0.0 0.0 0.0
0.0 0.0 0.0 6e-45 -6e-45 6e-45 7.1349526e-10 -4.0649015e-06
7.419079e-05 -0.0007837784 0.0007837784 -0.0014954687 -0.0007548102 -0.0011447908 -0.00063545373 0.00063545373
0.0 0.0 0.0 0.0 0.0 -0.00108891 -0.0005720399 -0.0010444223
-0.0018358761 0.0018358761 0.0 0.0 0.0 0.0 0.0 9.0426416e-05
0.00034348786 4.0370534e-05 0.001746325 -0.001746325 -6.870767e-06 0.00020649315 0.0006384918 0.0023280731
-0.0023280731 -4.2667467e-05 -0.0005889771 0.00020337163 0.0010390552 -0.0010390552
00000000: 5aef 73ba a8ab 0dba 9c47 65ba 96c5 b2ba
00000010: 96c5 b23a 0000 0000 0000 0000 0000 0000
00000020: 0000 0000 0000 0000 d630 193a b279 223a
00000030: b808 ed39 3681 1f3b 3681 1fbb 0000 0000
00000040: 0000 0000 0000 0000 0000 0000 0000 0000
00000050: 4cbd 58ba 4d50 d0b9 e21e 33ba af4f 8aba
00000060: af4f 8a3a cedf 93ba 16b4 2bba 6a86 f3b9
00000070: ad0a 13ba ad0a 133a a202 ccba 5785 46ba
00000080: cd85 67ba 02cf 83ba 02cf 833a b2ba b4ba
00000090: 37ee 1aba 5691 acba 651f eaba 651f ea3a
000000a0: 0000 0000 0000 0000 0000 0000 0000 0000
000000b0: 0000 0000 4cf4 98ba 0635 fbb9 731f 80ba
000000c0: 1e45 66ba 1e45 663a 2e85 86ba e93e c93a
000000d0: d45d 433a 8dc5 e93a 8dc5 e9ba e1bb 02bb
000000e0: 09d6 90ba 1a89 d4ba 6f1e 06bb 6f1e 063b
000000f0: b41f 9dba 66fc 20ba 4373 8bba e687 e7ba
00000100: e687 e73a 334e 753a dafa 8b39 0a64 5b3a
00000110: baff d53a baff d5ba 0000 0000 0000 0000
00000120: 0000 0000 0000 0000 0000 0000 0000 0000
00000130: 0000 0000 0000 0000 0000 0000 0000 0000
00000140: f5b4 bc3a 248c 3b3a 58a2 b23a 2ccb 173b
00000150: 2ccb 17bb 921d 9eba 451b 15ba 556e 57ba
00000160: 28b1 b6ba 28b1 b63a 5022 a8ba 0264 a6ba
00000170: e70c a4ba a019 d639 a019 d6b9 be4d 36bb
00000180: 16d0 06bb c286 15bb 3b81 bcba 3b81 bc3a
00000190: 0000 0000 0000 0000 0000 0000 0000 0000
000001a0: 0000 0000 0000 0000 0000 0000 0400 0000
000001b0: 0400 0080 0400 0000 c41f 4430 3d65 88b6
000001c0: e196 9b38 7a76 4dba 7a76 4d3a 9a03 c4ba
000001d0: 74de 45ba ce0c 96ba 9494 26ba 9494 263a
000001e0: 0000 0000 0000 0000 0000 0000 0000 0000
000001f0: 0000 0000 c2b9 8eba f3f4 15ba ffe4 88ba
00000200: c8a1 f0ba c8a1 f03a 0000 0000 0000 0000
00000210: 0000 0000 0000 0000 0000 0000 50a3 bd38
00000220: 2916 b439 8853 2938 f2e4 e43a f2e4 e4ba
00000230: 708b e6b6 1586 5839 7660 273a 9692 183b
00000240: 9692 18bb d8f5 32b8 9665 1aba 2840 5539
00000250: e830 883a e830 88ba

exp_avg_sq f4 [30, 5]
2.766478e-05 2.75978e-05 2.9718492e-05 1.09710945e-05 1.09710945e-05 0.0 0.0 0.0
0.0 0.0 3.1227497e-05 4.639844e-05 3.3018852e-05 1.9369734e-05 1.9369734e-05 0.0
0.0 0.0 0.0 0.0 2.1003254e-05 2.1584196e-05 2.190746e-05 7.0460637e-06
7.0460637e-06 2.3856748e-05 2.225636e-05 2.4149062e-05 7.529176e-06 7.529176e-06 4.849096e-05 4.8171474e-05
4.676523e-05 1.3911158e-05 1.3911158e-05 2.9229877e-05 3.318346e-05 3.229229e-05 1.3442075e-05 1.3442075e-05
0.0 0.0 0.0 0.0 0.0 3.1628766e-05 3.3792454e-05 3.2617765e-05
9.121529e-06 9.121529e-06 4.638246e-05 1.3532863e-05 8.515312e-05 2.3392295e-05 2.3392295e-05 3.689565e-05
4.6421355e-05 4.2403783e-05 1.6155931e-05 1.6155931e-05 4.312477e-05 4.3380078e-05 4.444648e-05 1.4861369e-05
1.4861369e-05 1.8799014e-05 2.024065e-05 2.3749662e-05 9.128457e-06 9.128457e-06 0.0 0.0
0.0 0.0 0.0 0.0 0.0 0.0 0.0 0.0
2.8406652e-05 2.8079892e-05 4.576767e-05 1.9535799e-05 1.9535799e-05 3.3872388e-05 3.4570516e-05 3.6880905e-05
1.1789197e-05 1.1789197e-05 1.9835115e-05 2.0003803e-05 1.4298275e-05 8.8365405e-06 8.8365405e-06 5.1308714e-05
5.06092e-05 5.0184506e-05 1.7964509e-05 1.7964509e-05 0.0 0.0 0.0 0.0
0.0 0.0 0.0 1.1767538e-12 1.4250427e-10 1.4250427e-10 5.349046e-07 5.6155227e-07
1.6390383e-06 4.4078806e-06 4.4078806e-06 5.3131993e-05 5.4408905e-05 5.1152834e-05 1.469958e-05 1.469958e-05
0.0 0.0 0.0 0.0 0.0 2.8053111e-05 2.8267814e-05 3.1430674e-05
1.3211473e-05 1.3211473e-05 0.0 0.0 0.0 0.0 0.0 5.07534e-05
2.9384986e-05 7.624178e-05 2.3760196e-05 2.3760196e-05 3.055683e-05 6.184682e-05 8.872127e-06 2.986273e-05
2.986273e-05 7.5615553e-06 4.125055e-06 1.1225353e-05 5.8078526e-06 5.8078526e-06
00000000: aa11 e837 d381 e737 fa4b f937 7e10 3837
00000010: 7e10 3837 0000 0000 0000 0000 0000 0000
00000020: 0000 0000 0000 0000 45fa 0238 f29b 4238
00000030: b97d 0a38 307c a237 307c a237 0000 0000
00000040: 0000 0000 0000 0000 0000 0000 0000 0000
00000050: 2530 b037 b50f b537 eac5 b737 3a6d ec36
00000060: 3a6d ec36 fa1f c837 2bb3 ba37 b793 ca37
00000070: 21a3 fc36 21a3 fc36 c662 4b38 ba0b 4a38
00000080: c925 4438 f863 6937 f863 6937 af32 f537
00000090: 782e 0b38 9571 0738 4685 6137 4685 6137
000000a0: 0000 0000 0000 0000 0000 0000 0000 0000
000000b0: 0000 0000 21a9 0438 5fbc 0d38 0fcf 0838
000000c0: ab08 1937 ab08 1937 ca8a 4238 340b 6337
000000d0: 3c94 b238 923a c437 923a c437 67c0 1a38
000000e0: 8db4 4238 b7da 3138 9986 8737 9986 8737
000000f0: dfe0 3438 01f3 3538 0b6c 3a38 1855 7937
00000100: 1855 7937 93b2 9d37 77ca a937 033a c737
00000110: 6d26 1937 6d26 1937 0000 0000 0000 0000
00000120: 0000 0000 0000 0000 0000 0000 0000 0000
00000130: 0000 0000 0000 0000 0000 0000 0000 0000
00000140: d24a ee37 1c8d eb37 a9f6 3f38 cfe0 a337
00000150: cfe0 a337 3312 0e38 cfff 1038 92b0 1a38
00000160: 37ca 4537 37ca 4537 9663 a637 d7cd a737
00000170: a0e2 6f37 a740 1437 a740 1437 5034 5738
00000180: 3745 5438 347d 5238 7db2 9637 7db2 9637
00000190: 0000 0000 0000 0000 0000 0000 0000 0000
000001a0: 0000 0000 0000 0000 0000 0000 069d a52b
000001b0: 63af 1c2f 63af 1c2f 5d96 0f35 94bd 1635
000001c0: edfc db35 68e7 9336 68e7 9336 0bda 5e38
000001d0: 1e35 6438 f08c 5638 379e 7637 379e 7637
000001e0: 0000 0000 0000 0000 0000 0000 0000 0000
000001f0: 0000 0000 9953 eb37 ab20 ed37 6ed4 0338
00000200: d8a6 5d37 d8a6 5d37 0000 0000 0000 0000
00000210: 0000 0000 0000 0000 0000 0000 0ce0 5438
00000220: c77f f637 fee3 9f38 a250 c737 a250 c737
00000230: 252a 0038 c2b3 8138 7fd9 1437 b981 fa37
00000240: b981 fa37 44b9 fd36 f469 8a36 8654 3c37
00000250: 13e1 c236 13e1 c236

exp_avg f4 [30]
-0.0036477696 0.0 0.002193077 0.0 -0.0022454287 -0.00047135307 -9.107223e-05 -0.004602342
0.0 -0.0011652207 0.0024612853 -0.004544772 -0.0039903778 0.003718887 0.0 0.0
0.004711868 -0.002490802 -0.00081897347 -0.0038684907 0.0 6e-45 0.0021679336 -0.0011214111
0.0 -0.003808281 0.0 0.0069601336 -7.728231e-06 0.0010551894
00000000: 6b0f 6fbb 0000 0000 bab9 0f3b 0000 0000
00000010: 0b28 13bb f01f f7b9 08fe beb8 3ecf 96bb
00000020: 0000 0000 52ba 98ba 844d 213b 50ec 94bb
00000030: b7c1 82bb 92b8 733b 0000 0000 0000 0000
00000040: 0366 9a3b b93c 23bb 61b0 56ba 8186 7dbb
00000050: 0000 0000 0400 0000 e413 0e3b 50fc 92ba
00000060: 0000 0000 5a94 79bb 0000 0000 d511 e43b
00000070: 80a8 01b7 484e 8a3a

exp_avg_sq f4 [30]
6.862517e-05 0.0 0.00012825624 0.0 4.6377038e-05 3.163115e-05 6.0929364e-05 0.00010150988
0.0 6.223534e-05 0.00014232771 0.00013118684 8.7112414e-05 7.300981e-05 0.0 0.0
0.00015314629 8.403507e-05 3.1711705e-05 8.2076425e-05 0.0 2.0981482e-10 1.3369803e-05 6.6450164e-05
0.0 8.436431e-05 0.0 0.00021429638 0.00021402909 4.6831407e-05
00000000: dcea 8f38 0000 0000 867c 0639 0000 0000
00000010: f784 4238 b0ab 0438 688e 7f38 b4e1 d438
00000020: 0000 0000 5884 8238 ce3d 1539 338f 0939
00000030: 1fb0 b638 d81c 9938 0000 0000 0000 0000
00000040: e595 2039 fc3b b038 2f02 0538 7220 ac38
00000050: 0000 0000 9fb1 662f de4e 6037 295b 8b38
00000060: 0000 0000 beec b038 0000 0000 bfb4 6039
00000070: ff6c 6039 d76c 4438

exp_avg f4 [3, 30]
-0.0007558907 0.0 -0.0024624374 0.0 -0.0017144613 0.0001676312 0.00012254121 0.00041798243
0.0 -0.0016592471 -0.00036031677 0.000476343 -4.004559e-05 -0.0020121797 0.0 0.0
-0.0017392159 -0.0015709507 0.00012271386 0.00038516478 0.0 -6e-45 2.4534731e-05 0.00014726107
0.0 -0.0008977834 0.0 -0.0013508475 -0.0020407815 -0.0020331773 0.002566164 0.0
0.0050291456 0.0 0.0024546005 0.0009975675 0.0012133941 0.0045879916 0.0 0.0028873214
-0.0011764563 0.0037030668 0.0030293637 0.0044204057 0.0 0.0 0.006353385 0.0023906608
0.00012582914 0.0015706215 0.0 6e-45 -0.00029059566 0.0012159225 0.0 0.0042570666
0.0 0.003558278 0.004658883 0.0040948605 0.0014660931 0.0 -0.0010221191 0.0
3.8407976e-05 0.0017609284 0.0003601088 0.0039579943 0.0 0.0007913676 0.002605741 0.004345212
0.0025375804 -0.001022721 0.0 0.0 -7.080636e-05 0.00039686216 -0.00042778195 0.0039007785
0.0 6e-45 1.8091321e-05 0.0003555863 0.0 0.0020396966 0.0 0.00087164063
0.00028570392 -0.00029429724
00000000: f726 46ba 0000 0000 d860 21bb 0000 0000
00000010: c6b7 e0ba 28c6 2f39 687e 0039 a724 db39
00000020: 0000 0000 187b d9ba e6e8 bcb9 adbd f939
00000030: a0f6 27b8 c6de 03bb 0000 0000 0000 0000
00000040: 67f6 e3ba 5ce8 cdba c0ac 0039 f1ef c939
00000050: 0000 0000 0400 0080 efcf cd37 186a 1a39
00000060: 0000 0000 3959 6bba 0000 0000 ec0e b1ba
00000070: a2be 05bb 0e3f 05bb 162d 283b 0000 0000
00000080: 88cb a43b 0000 0000 5ddd 203b d0c0 823a
00000090: c00a 9f3a dd56 963b 0000 0000 3739 3d3b
000000a0: 5333 9aba 27af 723b 4a88 463b 0dd9 903b
000000b0: 0000 0000 0000 0000 0e30 d03b a2ac 1c3b
000000c0: 01f1 0339 50dd cd3a 0000 0000 0400 0000
000000d0: 175b 98b9 975f 9f3a 0000 0000 dd7e 8b3b
000000e0: 0000 0000 0032 693b 8ba9 983b 2e2e 863b
000000f0: ec29 c03a 0000 0000 a0f8 85ba 0000 0000
00000100: 4018 2138 f4ce e63a fccc bc39 10b2 813b
00000110: 0000 0000 c873 4f3a 14c5 2a3b 4862 8e3b
00000120: 894d 263b d20c 86ba 0000 0000 0000 0000
00000130: e07d 94b8 f011 d039 ec47 e0b9 34a4 7f3b
00000140: 0000 0000 0400 0000 d1c2 9737 fc6d ba39
00000150: 0000 0000 6eac 053b 0000 0000 d07e 643a
00000160: 88ca 9539 e84b 9ab9

exp_avg_sq f4 [3, 30]
5.69235e-05 0.0 3.6641664e-05 0.0 6.305077e-05 3.796973e-05 3.6770693e-05 4.0076167e-05
0.0 6.1122526e-05 9.665383e-06 3.2112133e-05 6.551497e-05 2.5534846e-05 0.0 0.0
5.108071e-05 5.310977e-05 7.662189e-06 2.3078137e-05 0.0 1.3525091e-13 4.632771e-07 4.2962492e-05
0.0 5.2793188e-05 0.0 3.2142594e-05 6.179508e-05 2.1929218e-05 0.00016591595 0.0
4.268031e-05 0.0 0.00014599468 0.00013858442 7.802956e-05 0.000116145886 0.0 0.00018080711
5.3472573e-05 0.00010735122 0.00020660162 4.5462115e-05 0.0 0.0 9.499397e-05 0.00011074929
4.1625635e-06 6.798988e-05 0.0 2.9609495e-11 4.9905025e-06 0.000105324856 0.0 0.0001401851
0.0 9.289973e-05 4.0978404e-05 5.364238e-05 0.00018798973 0.0 6.452222e-05 0.0
0.0001709428 0.00017346592 9.380347e-05 0.00011315103 0.0 0.00015810892 1.30090875e-05 9.212956e-05
0.0002727474 4.1054733e-05 0.0 0.0 7.129799e-05 0.000114925395 7.004126e-06 9.087873e-05
0.0 5.293006e-13 4.7326552e-07 0.00013837309 0.0 0.00014722298 0.0 4.57949e-05
0.000104313556 3.1186948e-05
00000000: 25c1 6e38 0000 0000 b0af 1938 0000 0000
00000010: 203a 8438 b041 1f38 3b3a 1a38 7517 2838
00000020: 0000 0000 e82e 8038 8128 2237 24b0 0638
00000030: 1565 8938 aa33 d637 0000 0000 0000 0000
00000040: 7f3f 5638 2ec2 5e38 da8c 0037 ec97 c137
00000050: 0000 0000 6c47 182a 52b8 f834 a032 3438
00000060: 0000 0000 416e 5d38 0000 0000 d9d0 0638
00000070: fb97 8138 a3f4 b737 b9f9 2d39 0000 0000
00000080: a203 3338 0000 0000 2616 1939 f950 1139
00000090: cda3 a338 5993 f338 0000 0000 0a97 3d39
000000a0: bd47 6038 bf21 e138 33a3 5839 93ae 3e38
000000b0: 0000 0000 0000 0000 8037 c738 1342 e838
000000c0: 26ac 8b36 ca95 8e38 0000 0000 5439 022e
000000d0: 1774 a736 dae1 dc38 0000 0000 a7fe 1239
000000e0: 0000 0000 2ad3 c238 3ae0 2b38 11fe 6038
000000f0: 1c1f 4539 0000 0000 1a50 8738 0000 0000
00000100: 1c3f 3339 67e4 3539 5bb8 c438 7f4b ed38
00000110: 0000 0000 0aca 2539 9b41 5a37 ae35 c138
00000120: 89ff 8e39 2f32 2c38 0000 0000 0000 0000
00000130: d185 9538 1a04 f138 fc04 eb36 2696 be38
00000140: 0000 0000 21fc 142b 1e15 fe34 3e18 1139
00000150: 0000 0000 de5f 1a39 0000 0000 e613 4038
00000160: eac2 da38 bbce 0238

exp_avg f4 [3]
-0.0026331248 0.009386721 0.00085813925
00000000: 8190 2cbb c3ca 193c c0f4 603a

exp_avg_sq f4 [3]
0.00011064231 0.00021591327 0.0002689663
00000000: a308 e838 c766 6239 0c04 8d39
